…
    "outputId": "493321b2-5af3-48b3-ca77-2d999bdacfe0"
   },
   "outputs": [
    {
     "name": "stdout",
     "output_type": "stream",
     "text": [
      "Model: \"functional_1\"\n",
      "_________________________________________________________________\n",
      "Layer (type)                 Output Shape              Param #   \n",
      "=================================================================\n",
      "input_1 (InputLayer)         [(None, 224, 224, 3)]     0         \n",
      "_________________________________________________________________\n",
      "sequential (Sequential)      (None, 224, 224, 3)       0         \n",
      "_________________________________________________________________\n",
      "rescaling (Rescaling)        (None, 224, 224, 3)       0         \n",
      "_________________________________________________________________\n",
      "resnet50 (Functional)        (None, 7, 7, 2048)        23587712  \n",
      "_________________________________________________________________\n",
      "average_pooling2d (AveragePo (None, 1, 1, 2048)        0         \n",
      "_________________________________________________________________\n",
      "flatten (Flatten)            (None, 2048)              0         \n",
      "_________________________________________________________________\n",
      "dense (Dense)                (None, 256)               524544    \n",
      "_________________________________________________________________\n",
      "dense_1 (Dense)              (None, 196)               50372     \n",
      "=================================================================\n",
      "Total params: 24,162,628\n",
      "Trainable params: 24,109,508\n",
      "Non-trainable params: 53,120\n",
      "_________________________________________________________________\n"
     ]
    }
   ],
   "source": [
    "model.summary()"
   ]
  },
  {
   "cell_type": "code",
   "execution_count": null,
…
